model/simple_network.onnx (onnx, 8173 bytes, 2 tensors)

l1.weight f4 [10, 196]
0.04858607 -0.052851807 -0.04302918 -0.067825 0.03375998 0.034773294 -0.026965413 0.030018408
0.022528727 0.029608853 0.03043776 0.063089035 -0.069356315 -0.051664926 0.03688801 0.04337906
-0.0041141715 -0.21427311 -0.52994466 -0.6090294 -0.6631785 -0.88532674 -0.8067516 -0.93461776
-0.75411415 -0.55136424 -0.2370198 -0.033077132 -0.05066361 -0.05539568 -0.4757454 -0.415335
-0.31351694 -0.20120282 0.110910356 0.28465706 0.2174597 0.0014040817 -0.12734538 -0.4239021
-0.5158202 0.06252112 -0.07000586 -0.19870539 -0.40213394 -0.33434278 -0.30117106 0.030552493
0.25406027 0.34082207 0.54687494 0.42852923 0.23416309 -0.1902014 -0.96650547 -0.056090195
0.063473515 -0.12306003 -0.5431235 -0.197815 -0.11055481 -0.09682008 0.059805833 0.2483444
0.5575569 0.543752 0.2863506 0.37515485 -1.0744197 0.02696152 -0.0148747545 -0.22717433
-0.44888392 -0.034953486 -0.08813876 0.096150465 0.25345132 -0.442022 -0.4721254 0.4325456
0.45932296 0.67252374 -0.6585359 -0.0054178834 -0.049033903 -0.22660117 -0.36321154 0.19992705
0.07442758 0.47973564 -0.5467936 -1.1810454 -1.0539553 -0.24448319 0.49076343 0.73567635
0.3095181 -0.058159515 -0.117531076 -0.2871388 -0.14547442 0.29916894 0.44451284 0.27598962
-1.0402795 -1.1862175 -0.91600835 -0.12382719 0.36906278 0.6308408 0.21222009 0.011891641
-0.008410396 -0.4164424 0.10922661 0.408541 0.6706231 0.021371609 -1.178165 -1.1123399
-0.49909747 0.25352386 0.35651535 0.48437834 -0.26116192 -0.044018943 0.009464435 -0.5649302
0.0026506684 0.39828083 0.64400554 0.43894652 -0.5443034 -0.45082775 0.1113342 0.1713738
0.2667341 0.14444728 -0.44684383 -0.019602 0.03086336 -0.4608288 -0.03693426 0.33585918
0.41580677 0.7487973 0.44382584 0.1749487 0.03352426 -0.10200189 0.02497311 -0.3617374
-0.46917325 -0.0697267 0.059778087 -0.3818901 -0.45187646 0.06809562 0.35032067 0.5347837
0.5891604 0.4146167 -0.08142151 -0.4038689 -0.6734271 -0.40087003 -0.18876663 0.0008281246
0.026754633 -0.28293377 -0.4864036 -0.7637532 -0.8724215 -1.0727295 -1.0548534 -1.1609359
-1.0010841 -1.0911418 -0.82830584 -0.50127125 -0.3718948 0.06155353 0.03467065 0.0056289285
-0.04862942 -0.029996764 0.052110434 -0.01633571 0.06451001 0.042477123 -0.036315203 0.03518626
-0.049952738 0.011373937 0.010869727 0.0368141 0.05933062 0.067155175 0.008446097 -0.052125175
-0.04990772 0.022298254 0.052048013 -0.06415085 -0.069581896 0.060271166 -0.025757298 -0.05692845
0.042648874 -0.008751817 0.0021807924 -0.05455011 -0.039236054 0.022809444 0.03967735 -0.03390156
0.03425267 -0.06678048 -0.055752274 0.0044691954 -0.018363792 -0.0312681 0.060498107 -0.049477052
0.026508212 0.05790741 -0.04871629 0.040124964 -0.014451345 0.033345386 -0.051430475 -0.0774193
-0.074720375 0.0018479141 0.032461427 -0.06063207 0.031353295 0.04205609 -0.06570881 -0.04178959
0.032249514 -0.0027394854 -0.022477489 0.018418673 -0.048537266 0.042563215 0.012259268 0.008490136
0.058651283 -0.039404143 -0.015341322 0.058668397 0.026236221 0.0006327297 0.05529871 0.045307048
00000000: 3002 473d 237b 58bd 5e3f 30bd d5e7 8abd
00000010: e847 0a3d 716e 0e3d 92e6 dcbc 2ae9 f53c
00000020: 2a8e b83c 448e f23c 9c58 f93c d334 813d
00000030: af0a 8ebd 9a9e 53bd e217 173d 3eae 313d
00000040: 2cd0 86bb 696a 5bbe 74aa 07bf 5ae9 1bbf
00000050: 11c6 29bf c6a4 62bf 4687 4ebf 1c43 6fbf
00000060: a00d 41bf 3526 0dbf 52b5 72be e37b 07bd
00000070: a584 4fbd 95e6 62bd e794 f3be caa6 d4be
00000080: 4b85 a0be 1d08 4ebe f824 e33d 92be 913e
00000090: c1ad 5e3e 2a09 b83a d466 02be b209 d9be
000000a0: cb0c 04bf 130b 803d 3b5f 8fbd 6d79 4bbe
000000b0: 80e4 cdbe fa2e abbe 1833 9abe 3949 fa3c
000000c0: 3014 823e 3b80 ae3e ffff 0b3f 2f68 db3e
000000d0: 73c8 6f3e 28c4 42be e76c 77bf d5be 65bd
000000e0: 67fe 813d e606 fcbd 240a 0bbf 0490 4abe
000000f0: 8f6a e2bd 9b49 c6bd f6f6 743d ff4d 7e3e
00000100: 0dbc 0e3f 5533 0b3f 8c9c 923e 4c14 c03e
00000110: 9686 89bf 68de dc3c 3eb5 73bc 63a0 68be
00000120: 1dd4 e5be 632b 0fbd 1882 b4bd 89ea c43d
00000130: 5fc4 813e b550 e2be 6cba f1be 9e76 dd3e
00000140: 612c eb3e 842a 2c3f cf95 28bf 8088 b1bb
00000150: c6d7 48bd 230a 68be ddf6 b9be adb9 4c3e
00000160: 7d6d 983d e99f f53e aafa 0bbf 7f2c 97bf
00000170: 02e8 86bf cd59 7abe 5845 fb3e 4955 3c3f
00000180: 2879 9e3e ac38 6ebd 22b4 f0bd db03 93be
00000190: 3ff7 14be ac2c 993e 3097 e33e 834e 8d3e
000001a0: e127 85bf fad5 97bf 867f 6abf 1c99 fdbd
000001b0: ccf5 bc3e c87e 213f 3950 593e 28d5 423c
000001c0: c2cb 09bc f037 d5be 33b2 df3d 492c d13e
000001d0: f5ad 2b3f 8313 af3c 1cce 96bf 2761 8ebf
000001e0: b489 ffbe e1cd 813e 2e89 b63e 7000 f83e
000001f0: 04b7 85be 354d 34bd b810 1b3c 449f 10bf
00000200: d6b6 2d3b 77eb cb3e 8cdd 243f 99bd e03e
00000210: 7857 0bbf e5d2 e6be 2f03 e43d 9d7c 2f3e
00000220: 5f91 883e fde9 133e b7c8 e4be 6094 a0bc
00000230: 28d5 fc3c c1f1 ebbe 6148 17bd bcf5 ab3e
00000240: a0e4 d43e 2eb1 3f3f 243d e33e c125 333e
00000250: bc50 093d 5ee6 d0bd 6894 cc3c a535 b9be
00000260: 7a37 f0be dfcc 8ebd ded9 743d 1987 c3be
00000270: 5a5c e7be b775 8b3d 3b5d b33e 96e7 083f
00000280: 37d3 163f a448 d43e 52c0 a6bd e8c7 cebe
00000290: b865 2cbf d63e cdbe 0a4c 41be 8016 593a
000002a0: 882c db3c b2dc 90be e509 f9be 5485 43bf
000002b0: 0457 5fbf 334f 89bf 7005 87bf 8c99 94bf
000002c0: 8623 80bf 89aa 8bbf da0b 54bf 5053 00bf
000002d0: ff68 bebe 8e1f 7c3d d002 0e3d e072 b83b
000002e0: a52f 47bd c6bb f5bc c071 553d 78d2 85bc
000002f0: d31d 843d 7efc 2d3d 40bf 14bd 781f 103d
00000300: 3e9b 4cbd c059 3a3c f016 323c 62ca 163d
00000310: aa04 733d a788 893d 8061 0a3c 3581 55bd
00000320: 0a6c 4cbd d4aa b63c 4c30 553d 8561 83bd
00000330: f480 8ebd e6de 763d f800 d3bc ce2d 69bd
00000340: 96b0 2e3d c863 0fbc a0eb 0e3b f06f 5fbd
00000350: fcb5 20bd dfda ba3c b884 223d 5ddc 0abd
00000360: 874c 0c3d 34c4 88bd 7f5c 64bd 5472 923b
00000370: aa6f 96bc fb12 00bd ddcc 773d 73a8 4abd
00000380: c027 d93c 5230 6d3d bc8a 47bd 135a 243d
00000390: 56c5 6cbc 2c95 083d c3a8 52bd 038e 9ebd
000003a0: ff06 99bd b535 f23a 46f6 043d 5559 78bd
000003b0: 506c 003d 0243 2c3d 5792 86bd 902b 2bbd
000003c0: 1118 043d f088 33bb b622 b8bc c2e2 963c
000003d0: 03cf 46bd c456 2e3d 19db 483c 361a 0b3c
000003e0: 543c 703d 3d66 21bd 2b5a 7bbc 464e 703d
000003f0: 58ed d63c c5dd 253a e680 623d e293 393d

l1.bias f4 [10]
-0.1641649 -0.024673905 -0.03537597 -0.18634003 0.49663064 0.6736485 0.10905836 0.49374577
-0.8385137 -0.026762135
00000000: d81a 28be ee20 cabc 65e6 10bd eccf 3ebe
00000010: 5f46 fe3e 3a74 2c3f fd59 df3d 3fcc fc3e
00000020: d5a8 56bf 443c dbbc
